backend/mnist.pt (torch, 15016 bytes, 8 tensors)

conv1.weight f4 [2, 1, 5, 5]
0	0x3db388ab	0.08766302
1	0x3e35d6ac	0.17757672
2	0x3e6b3653	0.22969942
3	0x3e2462a2	0.1605325
4	0xbe076bbc	-0.13224691
5	0x3d0d6eee	0.03452962
6	0x3e462c46	0.19352826
7	0x3ed807dc	0.42193496
8	0x3eb56e90	0.35435915
9	0x3ea17b7a	0.31539518
10	0xbe224d9b	-0.15849917
11	0x3d872a05	0.065998115
12	0x3e48e536	0.19618687
13	0x3e80d9fd	0.25166312
14	0x3ed212b8	0.41029906
15	0xbeaeb5ff	-0.34123227
16	0xbe5a8fb2	-0.21343878
17	0xbeba8f56	-0.36437482
18	0xbc82ce6c	-0.01596757
19	0x3e3a40ce	0.18188784
20	0xbeb87db9	-0.3603342
21	0xbed30896	-0.41217488
22	0xbf2254a6	-0.63410413
23	0xbf290d56	-0.66035974
24	0xbe6d8589	-0.23195471
25	0x3dcf369a	0.10117836
26	0x3debff2e	0.11523281
27	0x3dea6d47	0.11446624
28	0xbe2c1611	-0.16805293
29	0xbd7a1c66	-0.06106224
30	0x3d724dfd	0.059156407
31	0x3e96a5cb	0.29423365
32	0x3e87b422	0.26504618
33	0x3e0fee89	0.14055838
34	0xbe28673b	-0.1644563
35	0xbb91927a	-0.00444251
36	0x3e9a674f	0.30156943
37	0x3e59264e	0.21206018
38	0x3ebec3f9	0.3725889
39	0xbcbddf12	-0.023177657
40	0x3e694c57	0.22783028
41	0x3e7f7fe3	0.24951129
42	0x3ec3f8b1	0.38275674
43	0x3e0ab56c	0.1354577
44	0xbe29c799	-0.16580047
45	0x3e85e938	0.26154494
46	0x3dfd25a8	0.12360698
47	0x3e0c070d	0.13674565
48	0xbe16ee26	-0.14739284
49	0xbe18a51c	-0.14906734

conv1.bias f4 [2]
0	0xbe41725f	-0.18891285
1	0x3f881c98	1.0633726

conv2.weight f4 [3, 2, 5, 5]
0	0x3d600613	0.054693293
1	0xbd690e66	-0.056898497
2	0x3e181857	0.14853035
3	0x3d990c9f	0.074731104
4	0x3debd1d2	0.115146294
5	0x3db1b3f7	0.08676904
6	0x3e4210c5	0.1895171
7	0x3e5ea6ca	0.21743312
8	0x3e03842a	0.12843385
9	0x3de7950b	0.113077246
10	0x3e57810f	0.21045326
11	0x3e5dd3a4	0.21662766
12	0x3e5f9380	0.2183361
13	0x3e532709	0.2062036
14	0xbb92409c	-0.0044632684
15	0x3e2074bf	0.15669535
16	0x3e5965fc	0.2123031
17	0x3e69bc9e	0.22825858
18	0x3e9f954e	0.31168598
19	0x3bb30a3f	0.005463868
20	0x3dd2fb1f	0.10301804
21	0x3de61d05	0.11236004
22	0xbc37a602	-0.011209013
23	0x3e094b90	0.13407731
24	0x3e2c786a	0.1684281
25	0xbc7a69b6	-0.0152839925
26	0xbe0f8711	-0.14016367
27	0xbd6f8a5d	-0.058481563
28	0xbe4cee31	-0.20012738
29	0xbe8b90b9	-0.27258852
30	0xbba753ca	-0.005106424
31	0xbd40ff93	-0.047118735
32	0xbd94c239	-0.072636075
33	0xbe6d72b6	-0.2318829
34	0xbed452a4	-0.414693
35	0x3daac468	0.08338243
36	0x3d254411	0.040348116
37	0x3e2e96e3	0.17049746
38	0x3df7133a	0.12064214
39	0xbe07c4da	-0.13258687
40	0x3c4a390d	0.0123427035
41	0x3e3f7918	0.18698537
42	0x3e4cc524	0.19997078
43	0x3e9ece3c	0.3101672
44	0x3e997697	0.2997329
45	0x3d960222	0.073246256
46	0x3d2a69ed	0.041604925
47	0x3eb123ef	0.34597728
48	0x3f0ff7ae	0.56237304
49	0x3ec8dc3d	0.39230528
50	0x3eabafb6	0.33532494
51	0x3ecb8659	0.39750937
52	0x3e2d0982	0.16898158
53	0x3e2894cd	0.16463013
54	0x3f1449e7	0.57925266
55	0x3e052c6b	0.13005225
56	0x3ee94ace	0.45564884
57	0x3e36102d	0.17779608
58	0x3eace948	0.3377173
59	0x3eda9551	0.42692044
60	0x3b734998	0.0037122723
61	0xbe252fae	-0.1613147
62	0xbd298b7a	-0.04139278
63	0x3c4d3a9a	0.012526179
64	0xbd46d7c4	-0.048545614
65	0xbd142f66	-0.036178015
66	0xbec0ebd1	-0.37679914
67	0xbef2b17e	-0.4740104
68	0xbeb6b813	-0.35687312
69	0xbe8d5272	-0.27601963
70	0x3d5e15af	0.054219898
71	0xbcb580f4	-0.022156216
72	0x3cdfcaca	0.027318377
73	0xbdf234e8	-0.11826497
74	0xbe33d46c	-0.17561501
75	0xbdb4c84e	-0.088272676
76	0xbdb5628c	-0.08856687
77	0x3dbfb1df	0.09360098
78	0xbd378b23	-0.044810425
79	0x3c65e2b0	0.014031097
80	0x3d153587	0.036428
81	0x3d672eb7	0.056441035
82	0x3dab4033	0.083618544
83	0x3e28ee41	0.16497137
84	0x3da432a2	0.0801747
85	0xbb87543c	-0.0041299146
86	0xbdcdd6dc	-0.10050747
87	0xbe4ae55f	-0.1981406
88	0xbd9c7d63	-0.07641103
89	0xbd588b38	-0.052867144
90	0x3da469c4	0.08027986
91	0x3dda55fe	0.10660933
92	0xbdbb785f	-0.09153818
93	0xbe10f84e	-0.1415722
94	0x3d8551d5	0.06509749
95	0x3ea5f462	0.32413012
96	0x3e7581ca	0.23975292
97	0xbd370249	-0.044679914
98	0xbd8310f7	-0.0639972
99	0x3e46b6c8	0.19405663
100	0x3ca00e01	0.019537928
101	0xbdcd16a5	-0.10014085
102	0xbe71ee47	-0.23626052
103	0xbed8608d	-0.42261162
104	0xbe0dfccc	-0.13865966
105	0xbe93e000	-0.28881836
106	0xbeb0e3c9	-0.34548786
107	0xbeecdb0f	-0.46260878
108	0xbee471cd	-0.44618073
109	0xbe262064	-0.16223294
110	0xbeb8a5f4	-0.36064112
111	0xbee3b68d	-0.44475213
112	0xbeaf9128	-0.34290433
113	0xbe161d01	-0.14659502
114	0xbd52dc85	-0.051479835
115	0xbe7173f5	-0.2357939
116	0xbe964d89	-0.2935603
117	0xbe20abb0	-0.15690494
118	0x3e2ca0e9	0.16858257
119	0x3ec28d39	0.3799837
120	0xbe09702a	-0.13421693
121	0x3d2e6929	0.042580757
122	0x3dc618e0	0.09672713
123	0x3e7552b7	0.23957334
124	0x3e904f99	0.28185728
125	0x3e12f184	0.14349943
126	0x3e106a74	0.14103109
127	0x3ec53eed	0.3852457
128	0x3ea4dc6d	0.32199422
129	0x3e819203	0.2530671
130	0xbe10f39b	-0.14155428
131	0x3d32d7ca	0.043662824
132	0x3e5643fc	0.20924371
133	0x3e6413be	0.22273156
134	0x3d55fdab	0.05224387
135	0xbe60a06e	-0.21936199
136	0x3e1ecb91	0.15507342
137	0x3ddf4f66	0.10903816
138	0x3d002bc5	0.031291742
139	0x3a3bd037	0.00071645103
140	0xbd066eb4	-0.03282042
141	0x3e2285c1	0.15871336
142	0x3de88107	0.11352735
143	0xbc6ffc87	-0.01464761
144	0xbd125fb4	-0.0357358
145	0x3e677d98	0.22606504
146	0x3e74f0fa	0.2392005
147	0x3b8b147b	0.004244385
148	0x3dd830de	0.10556196
149	0x3e0f156f	0.1397302

conv2.bias f4 [3]
0	0xbdffdcd1	-0.12493289
1	0x3e971d00	0.29514313
2	0x3eb21f41	0.3478947

d1.weight f4 [48, 48]
0	0x3a45a1d5	0.00075390685
1	0x3cdacd80	0.026709318
2	0x3c6d04d4	0.014466483
3	0xbcec4882	-0.028843168
4	0x3d1678b9	0.036736224
5	0x3e119903	0.14218526
6	0x3d68c87d	0.056831826
7	0xbdf0790e	-0.11741839
8	0xbe15a406	-0.14613351
9	0x3da50e21	0.080593355
10	0x3ce023ce	0.027360823
11	0x3dbbd990	0.09172356
12	0xbdec7ffc	-0.115478486
13	0xbe144d16	-0.14482531
14	0x3e3a1d7f	0.18175314
15	0xbc8d88a3	-0.017277068
16	0x3d9427f7	0.07234185
17	0xbe5b6a52	-0.21427277
18	0x3dda4e2f	0.106594436
19	0xbe822ccd	-0.25424805
20	0xbcd0df16	-0.025497
21	0xbda8a78f	-0.08235084
22	0x3d949a1e	0.07255958
23	0x3e29060a	0.1650621
24	0x3e47de6a	0.19518438
25	0xbd4cb146	-0.04997375
26	0xbbf76509	-0.007549886
27	0x3e436c5d	0.19084306
28	0x3d7a555b	0.061116558
29	0xbcc1f73f	-0.023677466
30	0x3ddb146a	0.10697253
31	0x3d1542e9	0.036440764
32	0x3e77c57d	0.2419643
33	0x3e5c1f89	0.21496405
34	0xbd82da91	-0.063893445
35	0xbda0e30d	-0.078558065
36	0x3e057a26	0.13034877
37	0x3dbd031f	0.09229111
38	0xbe1dc311	-0.15406443
39	0xbe922a9f	-0.28548142
40	0xbe15c377	-0.14625345
41	0xbe116f11	-0.14202525
42	0xbe87acdd	-0.26499072
43	0xbec1fe7c	-0.3788947
44	0xbdb1abeb	-0.08675369
45	0x3ac60ebb	0.0015110591
46	0xbe12128e	-0.1426489
47	0xbd556f2d	-0.05210798
48	0x3db25e23	0.087093614
49	0x3de5e5bc	0.11225459
50	0x3d3caf0c	0.046065375
51	0x3e829d9c	0.2551087
52	0x3d8dc458	0.06922215
53	0x3ccf072f	0.02527198
54	0x3d70aff6	0.05876156
55	0xbd470b77	-0.048594918
56	0x3d23d4c1	0.03999782
57	0xbd26207f	-0.040558334
58	0x3e054e1f	0.13018082
59	0xbe2d2ab0	-0.16910815
60	0xbe87c881	-0.2652016
61	0xbd92592c	-0.071459144
62	0xbe0293e4	-0.12751728
63	0xbca88955	-0.020573298
64	0xbe13d37d	-0.14436145
65	0x3dd1a605	0.10236744
66	0xbda9f60d	-0.082988836
67	0x3d075a66	0.033045195
68	0x3e50b2a7	0.2038065
69	0xbd80cfd5	-0.06289641
70	0x3e2277ed	0.1586606
71	0xbde04354	-0.10950342
72	0xbd05bcf4	-0.032650903
73	0x3e36ecf7	0.17863832
74	0x3e539d7a	0.20665541
75	0xbdff6573	-0.12470522
76	0x3e4be78d	0.19912548
77	0x3e3fe03b	0.18737881
78	0x3da6c3e9	0.08142836
79	0x3d3954e2	0.045246966
80	0xbe2214b8	-0.15828216
81	0xbe5ab724	-0.21358925
82	0x3d1a1c82	0.037624843
83	0x3d5b0850	0.053474724
84	0x3e1dab25	0.15397318
85	0x3cdb7c8d	0.026792789
86	0xbd5ef670	-0.05443424
87	0x3e879c3f	0.26486394
88	0x3e228dce	0.15874407
89	0xbd840767	-0.064467244
90	0x3b40f46f	0.0029442569
91	0x3e1fcefb	0.156063
92	0xbe412830	-0.18862987
93	0xbe34500a	-0.17608657
94	0x3af9152c	0.0019003502
95	0x3cd0a9ce	0.025471594
96	0xbe0ba14b	-0.13635747
97	0x3c57579f	0.013143449
98	0xbe25154e	-0.16121408
99	0xbd021c3f	-0.03176522
100	0xbd5c286e	-0.053749494
101	0xbcf6e3bf	-0.030137895
102	0x3e503997	0.20334469
103	0xbd1a5f47	-0.03768852
104	0x3e0006f0	0.12502646
105	0xbdd9de64	-0.10638121
106	0x3dcd8674	0.100354105
107	0xbe7fddfc	-0.24987024
108	0xbe023642	-0.1271601
109	0xbd8d3454	-0.068947464
110	0x3cd9e9fe	0.026600834
111	0x3ad8c759	0.0016538902
112	0x3e024283	0.12720685
113	0xbe5c5ca3	-0.21519713
114	0x3dbbad3f	0.091639034
115	0xbde5dae9	-0.112233944
116	0x3d953b67	0.07286721
117	0xbda9c205	-0.082889594
118	0xbe26be0a	-0.16283432
119	0x3dd5addc	0.10433552
120	0x3e054a44	0.13016611
121	0xbdbcf38d	-0.09226141
122	0x3d112752	0.03543789
123	0xbdacaf05	-0.0843182
124	0xbe3fb886	-0.18722734
125	0x3d3008a3	0.042976987
126	0x3dfc5a5c	0.12321922
127	0x3ea59bf7	0.32345554
128	0xbdf4be04	-0.11950305
129	0xbd9cdea4	-0.07659653
130	0x3dd449af	0.103656165
131	0xbc2bc685	-0.010484342
132	0xbdfc235a	-0.1231143
133	0x3dd415cd	0.10355721
134	0x3dc537ad	0.0962976
135	0xbd87c2a3	-0.06628921
136	0xbe8bc0a4	-0.2729541
137	0x3ccebf1d	0.025237614
138	0x3ed8ccaf	0.4234366
139	0xbe650d6b	-0.223684
140	0x3d8c206b	0.06842121
141	0x3e39acb0	0.18132281
142	0x3d5ddbcc	0.054164693
143	0xbe5d3be7	-0.21604882
144	0xbd4318ae	-0.04763096
145	0x3de916a8	0.113812745
146	0x3e8253a0	0.25454426
147	0x3d5e78c2	0.054314382
148	0xbdbf7a6d	-0.09349523
149	0xbd350ba2	-0.044200547
150	0x3daf876e	0.08570753
151	0x3e7b8d23	0.24565558
152	0x3e0ab602	0.13545993
153	0x3d8ca09f	0.068665735
154	0xbddfd65f	-0.1092956
155	0xbe035f3f	-0.12829302
156	0xbd2c85cb	-0.042119782
157	0x3e803c3b	0.25045952
158	0xbdc5b245	-0.09653143
159	0xbe4718ee	-0.19443104
160	0xbca67186	-0.020317804
161	0xbebc4a86	-0.36775607
162	0xbe8b31f9	-0.27186564
163	0xbd8081f5	-0.06274787
164	0xbe9782b2	-0.295919
165	0xbdc46f90	-0.09591591
166	0x3db878eb	0.09007438
167	0x3e1b93a1	0.15193035
168	0xbe13a896	-0.14419779
169	0x3ceeb58f	0.029139308
170	0x3da2f650	0.07957137
171	0xbd4921e9	-0.049104605
172	0x3d833dc4	0.06408265
173	0x3dc79822	0.09745814
174	0xbd0748b5	-0.033028323
175	0xbe2479cc	-0.16062087
176	0xbd46b415	-0.048511583
177	0x3e454034	0.19262773
178	0xbcdb690a	-0.026783485
179	0xbdadc7f3	-0.08485403
180	0x3e5d5f08	0.21618283
181	0x3d1d8805	0.038459796
182	0xbd1658e0	-0.03670585
183	0xbdc6e332	-0.09711303
184	0x3e0f0ed5	0.13970502
185	0xbd63762e	-0.055532627
186	0x3e30e4f3	0.17274837
187	0xbda6e476	-0.08149044
188	0x3d2b2523	0.041783463
189	0x3e0fdd91	0.14049365
190	0xbc097d1e	-0.008391647
191	0x3e5a25c7	0.21303473
192	0x3e469865	0.19394071
193	0x3d65254b	0.05594377
194	0x3d327d7f	0.043576714
195	0xbe00fccb	-0.12596433
196	0x3d9d9fb9	0.0769648
197	0xbdc5016c	-0.09619412
198	0xbde3e317	-0.11127298
199	0x3d1b9418	0.03798303
200	0xbd99dde7	-0.07513028
201	0x3c19aa30	0.009378955
202	0xbe57eb1c	-0.21085781
203	0x3e0a5eeb	0.13512771
204	0xbd9a53af	-0.07535493
205	0xbc0c464a	-0.00856168
206	0x3d946671	0.07246102
207	0x3e37c9fc	0.17948145
208	0x3db1aaec	0.08675179
209	0x3de9dfe0	0.11419654
210	0x3d92586b	0.07145771
211	0xbe3f7eb3	-0.18700676
212	0x3d50ece5	0.05100717
213	0xbcadc653	-0.021212732
214	0x3df0234b	0.117254816
215	0xbcac42b6	-0.021027904
216	0x3e50f640	0.20406437
217	0xbd50104c	-0.050796792
218	0x3e876afb	0.26448807
219	0xbe29af7f	-0.16570853
220	0x3e0e4bcd	0.13896103
221	0xbca7961b	-0.020457318
222	0xbd052acf	-0.03251153
223	0xbd113d38	-0.035458773
224	0x3c6816ff	0.014165639
225	0x3dd41b14	0.10356727
226	0xbd061272	-0.032732435
227	0xbddf16a0	-0.10892987
228	0x3e68e002	0.22741702
229	0x3d88087a	0.06642242
230	0xbe945d06	-0.2897722
231	0x3dac0149	0.083986826
232	0x3e0b2685	0.13588913
233	0x3e0e45a4	0.13893753
234	0xbc5cc3bd	-0.013474402
235	0xbdb7a250	-0.089665055
236	0x3e183a66	0.14866027
237	0xbe961593	-0.29313335
238	0xbee82d17	-0.453469
239	0x3ea251bb	0.3170298
240	0xbd7b2590	-0.06131512
241	0xbe641476	-0.2227343
242	0x3e2bed31	0.167897
243	0xbde3f744	-0.111311466
244	0xbed760c4	-0.42066014
245	0x3e3fa327	0.18714581
246	0xbd26821f	-0.040651437
247	0xbc4c717e	-0.0124782305
248	0x3e5b95c7	0.21443854
249	0x3e8f7a3e	0.2802295
250	0x3e6c623d	0.2308435
251	0x3dafc753	0.0858294
252	0xbe54e7ba	-0.20791522
253	0x3da0eb39	0.07857365
254	0xbd90017a	-0.07031532
255	0xbdd0bc51	-0.101921685

d1.bias f4 [48]
0	0xbc482aea	-0.012217263
1	0x3d2b8b74	0.04188104
2	0x3e468c9d	0.19389577
3	0xbe5e2f57	-0.21697746
4	0x3e563072	0.20916918
5	0xbe00ecf2	-0.12590387
6	0xbd893dad	-0.06701217
7	0x3e69c5a6	0.22829303
8	0xbe223c8f	-0.15843414
9	0x3e235196	0.15949091
10	0x3d62a1d3	0.05533011
11	0xbdbd5d55	-0.09246317
12	0x3c49b19a	0.01231041
13	0xbe0bfcdb	-0.13670675
14	0x3e458be5	0.19291647
15	0x3e1b609b	0.15173571
16	0xbcd0caad	-0.025487268
17	0x3e16095c	0.14652008
18	0xbe889246	-0.26674098
19	0xbd0c6f37	-0.03428575
20	0x3e1d50f6	0.15362915
21	0x3deb66e4	0.11494234
22	0xbe86d3cc	-0.26333463
23	0xbb7606f2	-0.003754076
24	0xbd27ad72	-0.040936895
25	0x3e9c60f0	0.30542707
26	0xbd32326d	-0.04350512
27	0x3dcca9f6	0.09993355
28	0x3c9f5561	0.019449892
29	0xbd33ac0e	-0.043865256
30	0x3c455e4f	0.012046411
31	0x3dc0b2da	0.09409113
32	0x3df66d7f	0.120326035
33	0x3e21fab0	0.15818286
34	0xbdd164e7	-0.10224324
35	0x3e75a134	0.23987275
36	0xbd2da488	-0.042393237
37	0xbd45ece6	-0.048321627
38	0x3c50ddd6	0.012748202
39	0x3e321690	0.1739142
40	0xbea78242	-0.32716566
41	0x3ea8a93b	0.32941613
42	0xbdac6bc0	-0.08418989
43	0x3e0c9e3e	0.1373224
44	0x3d3366f5	0.04379936
45	0xbb8d4ade	-0.0043119034
46	0x3e656832	0.22403029
47	0xbcba3173	-0.022728657

d2.weight f4 [10, 48]
0	0xbdd5889e	-0.10426448
1	0xbd4cfce4	-0.050045863
2	0xbeaf2397	-0.3420684
3	0x3e573a8c	0.21018428
4	0xbb6d686e	-0.0036225575
5	0xbe07b3dd	-0.13252206
6	0xbd8cfba2	-0.06883933
7	0xbe75e7e1	-0.24014236
8	0xbf0db0fc	-0.5534818
9	0xbe862e67	-0.26207277
10	0xbe3f7fc9	-0.1870109
11	0x3d599b67	0.05312672
12	0xbeb5ecaf	-0.35532138
13	0x3e17224c	0.14759177
14	0xbdee4161	-0.11633564
15	0xbdff13d6	-0.12454955
16	0xbd04c4cc	-0.032414243
17	0xbeacccd4	-0.3375002
18	0xbeaf1889	-0.34198406
19	0xbd4dba23	-0.050226342
20	0xbeb435e0	-0.35197353
21	0xbe60ee35	-0.21965869
22	0x3e0556a5	0.13021334
23	0xbe5ec94b	-0.21756475
24	0xbe86b44b	-0.26309428
25	0x3d0c5990	0.0342651
26	0xbf011f9a	-0.50438845
27	0x3e1bc06a	0.15210119
28	0xbe2a88b2	-0.16653708
29	0xbd7d8d51	-0.061902348
30	0xbea09301	-0.31362155
31	0x3e374ea7	0.17901097
32	0xbed95bf0	-0.42452955
33	0xbefc6b80	-0.49300766
34	0x3bfe58ca	0.0077620493
35	0x3e208c45	0.15678509
36	0x3d42a7cc	0.047523305
37	0xbf03cdaf	-0.51485723
38	0x3d105ef2	0.035246797
39	0xbe39a9ba	-0.18131152
40	0x3dfa3356	0.12216823
41	0xbe0f2341	-0.13978292
42	0xbd7d18ed	-0.06179135
43	0x39614569	0.0002148353
44	0xbf33665c	-0.70078063
45	0xbcfd6b54	-0.030934967
46	0xbe0bc3b4	-0.13648874
47	0xbce2b724	-0.027675219
48	0x3cf682d3	0.030091679
49	0xbed469c4	-0.41486943
50	0x3e289371	0.16462494
51	0xbe9f0bcd	-0.3106369
52	0xbea8d999	-0.32978514
53	0xbc4f9029	-0.012668648
54	0x3e90a476	0.28250474
55	0x3ea0f825	0.3143932
56	0xbe0163a1	-0.12635662
57	0xbea2549f	-0.31705186
58	0xbe035f32	-0.12829283
59	0x3e8df941	0.27729228
60	0xbdaf58fe	-0.08561896
61	0xbece812c	-0.40332925
62	0x3e6dae11	0.23210932
63	0xbe114ce0	-0.14189482
64	0xbe14da30	-0.14536357
65	0x3f0b2640	0.5435524
66	0xbdf434ee	-0.11924158
67	0xbe10c216	-0.14136538
68	0x3b879679	0.004137811
69	0x3df69cad	0.12041602
70	0xbe92cf85	-0.2867395
71	0x3e4463a4	0.19178635
72	0xbf27cb8d	-0.6554497
73	0x3ebcc25d	0.36867037
74	0xbd3a1e33	-0.045438956
75	0xbe86ad5e	-0.26304144
76	0x3c550175	0.013000836
77	0xbe471017	-0.19439732
78	0x3ceb4af6	0.028722268
79	0xbe4b8a06	-0.1987687
80	0xbd47a33f	-0.048739668
81	0x3e105aea	0.14097181
82	0xbbc8b8df	-0.006125554
83	0xbeeefcb7	-0.4667718
84	0xbe8057c2	-0.25066954
85	0xbe55dc3c	-0.20884794
86	0xbe9ff900	-0.3124466
87	0x3e0baed2	0.13640907
88	0xbf02ca69	-0.51090103
89	0x3eaa9aff	0.33321378
90	0x3bf4f9b3	0.0074760555
91	0xbda2724e	-0.07931958
92	0xbe56f6e2	-0.20992616
93	0xbc91c958	-0.017796203
94	0xbea48241	-0.32130626
95	0xbe6604f7	-0.22462831
96	0xbed772b9	-0.42079714
97	0xbe0d3e2f	-0.13793252
98	0xbe8068e8	-0.25080037
99	0xbe3031c6	-0.17206487
100	0xbf176836	-0.5914339
101	0x3e46f8ef	0.19430898
102	0x3e27ae5d	0.16375108
103	0x3e2ade6c	0.1668641
104	0xbe9c87b7	-0.30572292
105	0x3e6d9ef6	0.2320517
106	0x3dec460d	0.115367986
107	0x3da80a8a	0.08205135
108	0xbdeee419	-0.116646
109	0x3d07355b	0.033009868
110	0xbe51f20b	-0.20502488
111	0x3e4c4f8b	0.19952218
112	0xbeac4586	-0.33646792
113	0x3d282a96	0.041056238
114	0x3e28a097	0.1646751
115	0xbe2e1f3b	-0.17004101
116	0xbf127411	-0.57208353
117	0xbc7f930c	-0.015599024
118	0xbe2f4fec	-0.17120332
119	0x3ed53283	0.416401
120	0x3dbbbab3	0.091664694
121	0xbe2fcc33	-0.1716774
122	0x3c2e9bdb	0.010657276
123	0xbecf827e	-0.40529245
124	0xbcf40c30	-0.029790968
125	0x3d59e0d3	0.053192925
126	0xbf2870b8	-0.65796995
127	0xba8e6b53	-0.0010865725
128	0xbef79b5f	-0.48360726
129	0xbe1accc5	-0.15117176
130	0xbd0804ef	-0.03320783
131	0x3d62ee9b	0.055403333
132	0xbe8bfb2e	-0.27340072
133	0xbd8ff60a	-0.0702935
134	0xbdbf72bd	-0.093480565
135	0x3a8999e2	0.0010498131
136	0xbe76e659	-0.24111308
137	0xbee40f9c	-0.4454316
138	0x3e8ebaa5	0.27876773
139	0x3e26d5b2	0.16292456
140	0xbe13ff5a	-0.14452878
141	0x3ceba2bb	0.02876412
142	0x3bd77fef	0.00657653
143	0xbe08f7a9	-0.13375725
144	0xbeabfddf	-0.33592126
145	0xbdb3e821	-0.087845095
146	0xbf32bc4d	-0.69818574
147	0xbda46aee	-0.08028208
148	0xbe507237	-0.2035607
149	0xbdb2bcaa	-0.08727391
150	0xbdda33d2	-0.10654415
151	0xbd95103a	-0.072784856
152	0x3e5b5097	0.21417461
153	0xbec30774	-0.38091624
154	0xbde8c1e3	-0.11365106
155	0xbe03384e	-0.12814447
156	0xbe9fef5d	-0.31237307
157	0xbc58bb2d	-0.01322822
158	0xbef5d6dd	-0.4801549
159	0xbe5be8ec	-0.21475571
160	0x3e1f4291	0.15552737
161	0xbf14a582	-0.58065045
162	0x3dfaae51	0.122402795
163	0x3de973a9	0.113990135
164	0x3e7b2199	0.24524535
165	0xbd9bd694	-0.07609287
166	0x3e332f22	0.17498448
167	0xbead607d	-0.33862677
168	0xbb2354d4	-0.0024922388
169	0x3c6888d3	0.014192778
170	0xbd746d3f	-0.059674498
171	0xbddf742c	-0.1091083
172	0x3c03d018	0.008045219
173	0x3e0f8293	0.14014654
174	0xbee026a6	-0.43779486
175	0xbec71da2	-0.38889796
176	0xbcfc22c6	-0.0307783
177	0x3c9f4984	0.019444235
178	0xbdd47caf	-0.10375344
179	0xbf06e05c	-0.52686095
180	0xbe288459	-0.16456737
181	0xbe5df2f7	-0.21674715
182	0xbea7929d	-0.32729045
183	0xbdef117c	-0.11673257
184	0xbda66c1d	-0.0812609
185	0xbf276e05	-0.6540225
186	0xbe2dcffb	-0.1697387
187	0xbee313b4	-0.4435097
188	0xbd2d6d7f	-0.04234075
189	0x3e52b616	0.20577273
190	0xbda33666	-0.0796936
191	0x3eacd9e8	0.3376
192	0xbeaea836	-0.3411271
193	0x3e0b4787	0.13601504
194	0x3e00913c	0.12555403
195	0xbe25d041	-0.16192724
196	0x3c48f2f1	0.012264953
197	0xbce6bace	-0.028165247
198	0xbdbad8f8	-0.09123415
199	0xbe33206d	-0.17492838
200	0x3bef9c93	0.0073123663
201	0x3e33f7ac	0.17574948
202	0xbf41cd58	-0.75703955
203	0x3da972d9	0.082738586
204	0xbec50f9e	-0.38488477
205	0x38221b1b	3.8649054e-05
206	0xbe6ee7c2	-0.23330596
207	0x3e31cbbd	0.17362876
208	0xbe884f21	-0.2662287
209	0xbe0f806e	-0.14013836
210	0x3df16762	0.11787297
211	0xbea34941	-0.31891826
212	0x3db12b61	0.08650852
213	0xbeaae0d5	-0.33374658
214	0xbefd442b	-0.4946607
215	0xbebfe304	-0.37477887
216	0x3dd556d4	0.10416952
217	0xbf2f118d	-0.68386155
218	0x3de6bd4c	0.11266574
219	0xbd6b2da5	-0.057416577
220	0x3cfa80a2	0.030578915
221	0xbeff508e	-0.49866146
222	0xbd496069	-0.04916421
223	0xbd89c91d	-0.067278124
224	0x3e323f2c	0.1740691
225	0xbda3f44f	-0.080055825
226	0x3c992112	0.018692527
227	0x3e5845ca	0.21120372
228	0xbecf99fa	-0.40547162
229	0xbded472f	-0.11585843
230	0xbe3045a6	-0.17214069
231	0x3e593dff	0.21215056
232	0x3dc31c2e	0.09526859
233	0x3d984388	0.074347556
234	0xbe3332a1	-0.17499782
235	0xbea54d3d	-0.3228549
236	0x3e5e8ffd	0.21734615
237	0xbf32f577	-0.699058
238	0xbed3137a	-0.41225797
239	0xbdbd6103	-0.09247019
240	0x3e94e98f	0.2908444
241	0xbd8aeb06	-0.067831084
242	0xbf159e07	-0.58444256
243	0x3df786b9	0.12086243
244	0x3db1698d	0.0866271
245	0xbe6e67fc	-0.23281854
246	0xbea915f9	-0.33024576
247	0xbd5b00e3	-0.053467643
248	0x3e0e83ae	0.1391742
249	0xbea003f8	-0.31253028
250	0x3d79eb76	0.06101557
251	0x3e3510ec	0.17682236
252	0x3d55a8e4	0.05216302
253	0xbe5c369f	-0.21505211
254	0xbeb39121	-0.35071662
255	0xbf27ab5f	-0.65495867

d2.bias f4 [10]
0	0xbe2b3930	-0.16721034
1	0x3e3f4fa2	0.18682721
2	0xbe771c33	-0.24131851
3	0xbe8af22a	-0.27137882
4	0x3dc57705	0.09641842
5	0x3c227fa1	0.009918124
6	0x3d3bf1c1	0.04588485
7	0x3ddb1db5	0.106990255
8	0xbd63a7b8	-0.05557987
9	0xbd76bf24	-0.06024088
